…
Epoch 21/200
1600/1600 [==============================] - 2s - loss: 0.6889 - acc: 0.5269 - val_loss: 0.7151 - val_acc: 0.2975
Epoch 22/200
1600/1600 [==============================] - 2s - loss: 0.6879 - acc: 0.5563 - val_loss: 0.7168 - val_acc: 0.3275
Epoch 23/200
1600/1600 [==============================] - 2s - loss: 0.6873 - acc: 0.5350 - val_loss: 0.7186 - val_acc: 0.4375
_________________________________________________________________
Layer (type)                 Output Shape              Param #
=================================================================
conv2d_1 (Conv2D)            (None, 16, 16, 32)        320
_________________________________________________________________
conv2d_2 (Conv2D)            (None, 14, 14, 64)        18496
_________________________________________________________________
max_pooling2d_1 (MaxPooling2 (None, 7, 7, 64)          0
_________________________________________________________________
dropout_1 (Dropout)          (None, 7, 7, 64)          0
_________________________________________________________________
flatten_1 (Flatten)          (None, 3136)              0
_________________________________________________________________
dense_1 (Dense)              (None, 128)               401536
_________________________________________________________________
dropout_2 (Dropout)          (None, 128)               0
_________________________________________________________________
dense_2 (Dense)              (None, 2)                 258
=================================================================
Total params: 420,610
Trainable params: 420,610
Non-trainable params: 0
_________________________________________________________________
384/400 [===========================>..] - ETA: 0s
Test loss: 0.718635673523
Test accuracy: 0.4375
