Layer (type)                 Output Shape              Param #
=================================================================
conv2d_1 (Conv2D)            (None, 13, 13, 32)        320
_________________________________________________________________
conv2d_2 (Conv2D)            (None, 11, 11, 64)        18496
_________________________________________________________________
max_pooling2d_1 (MaxPooling2 (None, 5, 5, 64)          0
_________________________________________________________________
dropout_1 (Dropout)          (None, 5, 5, 64)          0
_________________________________________________________________
flatten_1 (Flatten)          (None, 1600)              0
_________________________________________________________________
dense_1 (Dense)              (None, 128)               204928
_________________________________________________________________
dropout_2 (Dropout)          (None, 128)               0
_________________________________________________________________
dense_2 (Dense)              (None, 2)                 258
=================================================================
Total params: 224,002
Trainable params: 224,002
Non-trainable params: 0
_________________________________________________________________
3136/4000 [======================>.......] - ETA: 0s
Test loss: 0.749827870369
Test accuracy: 0.5135
