…
Epoch 46/200
1600/1600 [==============================] - 2s - loss: 0.1744 - acc: 0.9369 - val_loss: 0.2610 - val_acc: 0.9275
Epoch 47/200
1600/1600 [==============================] - 2s - loss: 0.1809 - acc: 0.9387 - val_loss: 0.2374 - val_acc: 0.9275
Epoch 48/200
1600/1600 [==============================] - 2s - loss: 0.1793 - acc: 0.9413 - val_loss: 0.2427 - val_acc: 0.9225
_________________________________________________________________
Layer (type)                 Output Shape              Param #
=================================================================
conv2d_1 (Conv2D)            (None, 16, 16, 32)        320
_________________________________________________________________
conv2d_2 (Conv2D)            (None, 14, 14, 64)        18496
_________________________________________________________________
max_pooling2d_1 (MaxPooling2 (None, 7, 7, 64)          0
_________________________________________________________________
dropout_1 (Dropout)          (None, 7, 7, 64)          0
_________________________________________________________________
flatten_1 (Flatten)          (None, 3136)              0
_________________________________________________________________
dense_1 (Dense)              (None, 128)               401536
_________________________________________________________________
dropout_2 (Dropout)          (None, 128)               0
_________________________________________________________________
dense_2 (Dense)              (None, 2)                 258
=================================================================
Total params: 420,610
Trainable params: 420,610
Non-trainable params: 0
_________________________________________________________________
288/400 [====================>.........] - ETA: 0s
Test loss: 0.242684557438
Test accuracy: 0.9225
